checkpoint.pth (torch_old, 35691 bytes, 6 tensors)

fc1.weight f4 [74, 37]
0.083933555 0.3222613 -0.5331093 -0.78242207 -1.3045834 -0.0030238682 -0.099995896 -0.09493288
0.33089438 0.24733524 -0.13947685 -0.2767013 -0.11102476 -0.0034581139 0.036506202 -0.32771942
0.19881684 -0.15283613 0.008689924 -0.13215756 -0.011822903 -0.055879187 0.11420172 0.062896855
-0.10078178 -0.24972415 0.14875236 -0.35036168 -0.053059205 -0.056333747 -0.017824806 0.036743637
-0.09969398 -0.39574614 -0.20004976 0.05622548 0.0023342408 -0.0837529 0.3479899 0.07316516
-0.21023044 -0.2810615 -0.048077624 -0.08097989 -0.12644564 -0.65330553 0.23076059 0.26985708
-0.007953424 -0.07642175 -0.23915511 -1.1429032 0.11669073 -0.19954062 0.25826225 -0.108788826
-0.610839 -0.07476782 -0.52941614 -0.03914006 0.08005066 0.060918026 -0.098259054 0.059943017
0.001953711 -0.007230233 -0.083748594 0.08567823 -0.00021428596 0.050119083 -0.30204722 0.019558854
0.04523969 0.019794807 -0.42365393 0.35964 -0.12629975 -0.5130415 -1.1847504 -0.5485678
-0.03129933 -0.020826705 -0.09143182 0.11342431 -0.3177352 0.19845529 -0.13768557 -0.35300073
0.2060381 -0.5884571 0.291244 0.04037828 -0.6342253 -1.2130042 -0.043601975 -0.64560974
0.103766866 -0.42880195 -0.35058945 -0.4940706 0.17535603 0.17244959 -0.096499555 -0.58337116
-0.43690237 -0.25750497 0.07155339 -0.03359901 -0.46224877 -0.07101757 -0.07354454 -0.0399429
-0.6115618 -0.5957831 0.10233159 -1.0056462 -0.211192 -0.45130575 -0.10957277 -0.29520965
-0.14092992 -0.17357449 -0.29762676 -0.39667457 -0.54587066 -0.80206764 -0.5645183 0.06436129
-0.21827939 -0.69334334 0.23587634 0.21711545 -0.4768712 -0.3297148 -0.10200303 -1.158064
0.22821456 -0.49603122 -0.55195034 -0.20541377 -0.34946844 -0.31008825 0.45601174 -0.32274476
-0.7422129 -0.49904945 0.18694268 -0.105752185 0.025429167 -0.11753127 -0.095319144 -0.114243016
-0.1472401 0.39184403 -0.23171355 -0.17686725 -0.62207043 -2.6045077 -0.0073363893 0.11775568
0.0066119432 -0.09142786 0.039502483 0.006317909 -0.07819974 0.0069524464 0.12341576 -0.013604284
0.018411728 -0.04927436 0.03351694 0.08417545 0.15148693 -0.09553282 0.07879612 0.18880546
0.42363262 0.4802478 0.044993818 0.075847924 0.17816733 0.21690634 0.049347274 -0.04627628
-0.0011582978 -0.6361319 0.10299008 -0.8007815 -0.58334315 0.57548225 0.10773842 0.19381219
-0.80839807 -0.5988582 0.57688594 -0.57218033 -0.9164872 -0.2907108 -0.32982445 0.23996103
-0.43006724 -0.4790364 0.03470578 -0.846147 -0.76782 -0.5152734 -0.39497912 0.011109888
-0.17147638 -0.44034737 -0.5506846 -0.6465199 -0.08190863 -0.72809935 -0.28056982 -0.6514189
-0.13884489 -0.9490439 0.09653535 -0.56156534 0.19874917 0.04748663 -0.08049731 -0.48310122
-0.053088356 -0.3818011 -0.32712504 -0.21643615 -0.4241977 -0.25765765 -0.06089295 0.14314918
-0.15118678 -0.2705507 0.17089415 -0.6595089 0.098070286 -0.9460012 -0.37541264 -0.099751
-0.007770672 -0.30940422 -0.7373102 -0.38376307 -0.6880061 0.42904186 -0.14462537 -0.95856273
0.034262557 -0.34797677 -0.10615783 0.20508903 0.30783874 -0.16493592 -0.33219555 -0.9161905
00000000: 5be5 ab3d 6fff a43e da79 08bf d04c 48bf
00000010: 97fc a6bf 172c 46bb a6ca ccbd 2b6c c2bd
00000020: fd6a a93e 7345 7d3e 05d3 0ebe cbab 8dbe
00000030: f360 e3bd 86a1 62bb 8787 153d d7ca a7be
00000040: a496 4b3e 1381 1cbe 2f60 0e3c 5054 07be
00000050: d9b4 41bc 93e1 64bd 97e2 e93d 11d0 803d
00000060: ae66 cebd b0b7 7fbe 8a52 183e 9b62 b3be
00000070: 9c54 59bd 37be 66bd 5405 92bc 7f80 163d
00000080: 5b2c ccbd 3d9f cabe d8d9 4cbe b04c 663d
00000090: 10fa 183b a486 abbd bb2b b23e 9ed7 953d
000000a0: a646 57be 4be7 8fbe 0bed 44bd c9d8 a5bd
000000b0: f77a 01be 083f 27bf 814c 6c3e b52a 8a3e
000000c0: 144f 02bc 0283 9cbd 14e5 74be a74a 92bf
000000d0: 8dfb ee3d 6054 4cbe f33a 843e adcc debd
000000e0: f25f 1cbf df1f 99bd d187 07bf 5451 20bd
000000f0: 9af1 a33d 2e85 793d 0b3c c9bd cf86 753d
00000100: d509 003b 97eb ecbb 6284 abbd 1178 af3d
00000110: f3b1 60b9 ab49 4d3d efa5 9abe e439 a03c
00000120: 414d 393d b828 a23c 2be9 d8be bc22 b83e
00000130: b954 01be b056 03bf e7a5 97bf f06e 0cbf
00000140: ba33 00bd c49c aabc 9b40 bbbd 014b e83d
00000150: 30ae a2be dd37 4b3e 72fd 0cbe 83bc b4be
00000160: a7fb 523e 20a5 16bf ef1d 953e b263 253d
00000170: 975c 22bf b943 9bbf fc97 32bd ae46 25bf
00000180: b983 d43d ee8b dbbe 7680 b3be d2f6 fcbe
00000190: 8890 333e a096 303e 8fa1 c5bd d057 15bf
000001a0: abb1 dfbe b1d7 83be 958a 923d 1e9f 09bd
000001b0: dfab ecbe a971 91bd 859e 96bd 2b9b 23bd
000001c0: 508f 1cbf 3e85 18bf 3a93 d13d 04b9 80bf
000001d0: b742 58be 8c11 e7be b067 e0bd b825 97be
000001e0: ef4f 10be 83bd 31be 8962 98be ee18 cbbe
000001f0: 2ebe 0bbf 4e54 4dbf 4584 10bf dacf 833d
00000200: a284 5fbe f37e 31bf 9189 713e 8353 5e3e
00000210: 7628 f4be 61d0 a8be f7e6 d0bd 713b 94bf
00000220: 14b1 693e cef7 fdbe 9e4c 0dbf fd57 52be
00000230: 87ed b2be e3c3 9ebe 5f7a e93e cd3e a5be
00000240: aa01 3ebf 6983 ffbe e76d 3f3e 9a94 d8bd
00000250: d450 d03c 3cb4 f0bd af36 c3bd 3ef8 e9bd
00000260: 1cc6 16be c89f c83e 5146 6dbe b01c 35be
00000270: 0240 1fbf 41b0 26c0 1866 f0bb e429 f13d
00000280: 00a9 d83b 883e bbbd 5bcd 213d 7606 cf3b
00000290: 2f27 a0bd 59d1 e33b 67c1 fc3d 81e4 5ebc
000002a0: 31d4 963c e9d3 49bd 0f49 093d 2e64 ac3d
000002b0: 641f 1b3e b6a6 c3bd dc5f a13d 3856 413e
000002c0: 60e6 d83e 0ae3 f53e 704b 383d 2856 9b3d
000002d0: 7f71 363e b21c 5e3e 5e20 4a3d 328c 3dbd
000002e0: 06d2 97ba 8ad9 22bf 77ec d23d 0400 4dbf
000002f0: fa55 15bf ce52 133f f6a5 dc3d b476 463e
00000300: 2df3 4ebf c54e 19bf ccae 133f 697a 12bf
00000310: e89e 6abf 0cd8 94be c0de a8be 58b8 753e
00000320: c631 dcbe 4244 f5be a627 0e3d 179d 58bf
00000330: da8f 44bf f5e8 03bf b43a cabe 3f06 363c
00000340: 8197 2fbe 3675 e1be aaf9 0cbf 5482 25bf
00000350: b6bf a7bd b864 3abf d9a6 8fbe 64c3 26bf
00000360: 5b2d 0ebe 8bf4 72bf 53b4 c53d bfc2 0fbf
00000370: e784 4b3e 5781 423d c6db a4bd 0b59 f7be
00000380: 2d73 59bd 6f7b c3be ef7c a7be 70a1 5dbe
00000390: 7130 d9be b4eb 83be e36a 79bd b395 123e
000003a0: b5d0 1abe 9f85 8abe e0fe 2e3e 93d5 28bf
000003b0: 13d9 c83d 222d 72bf 1636 c0be 414a ccbd
000003c0: 1fa1 febb 3b6a 9ebe 5cc0 3cbf 987c c4be
000003d0: 2b21 30bf 60ab db3e ac18 14be 5e64 75bf
000003e0: e556 0c3d 032a b2be 4769 d9bd dc02 523e
000003f0: 0a9d 9d3e f6e4 28be 8915 aabe 768b 6abf

fc1.bias f4 [74]
0.16080885 0.004478497 0.11258477 -0.098416515 0.09375423 -0.23259628 -0.109736525 -0.04824133
-0.21212782 -0.1096678 -0.16799575 0.084036976 0.03100075 -0.055539817 -0.06400042 -0.23341784
-0.2948302 0.27828518 -0.44671017 0.021792343 -0.11328997 -0.06173963 -0.2881055 -0.10179593
0.08306048 -0.15506569 -0.07662504 -0.08866239 -0.005875261 0.24104486 0.1594026 -0.057170454
-0.21920745 -0.1552911 -0.101306744 0.012897988 -0.21662842 -0.078502804 -0.026044155 -0.065252066
-0.15620631 0.012128085 -0.12397867 0.061755057 -0.18361607 0.014297484 -0.09421276 0.20077705
-0.17536077 -0.0038482235 -0.14409405 0.07865423 0.221462 -0.0017989876 -0.18678905 -0.14311291
-0.2660405 0.108445466 -0.10419635 0.1269411 0.1765534 -0.10360799 -0.1602485 -0.12886067
-0.014140028 -0.051212385 -0.089658335 0.0077684643 -0.10809342 -0.046985116 -0.22909473 -0.027572777
0.023857703 -0.03910659
00000000: 13ab 243e 5bc0 923b d892 e63d 998e c9bd
00000010: 3802 c03d b82d 6ebe 8bbd e0bd b398 45bd
00000020: 0938 59be 8399 e0bd 1407 2cbe 941b ac3d
00000030: 49f5 fd3c b87d 63bd a712 83bd 1605 6fbe
00000040: fcf3 96be 657b 8e3e 32b7 e4be db85 b23c
00000050: 9204 e8bd b2e2 7cbd 9082 93be 627a d0bd
00000060: 9d1b aa3d 8ac9 1ebe 97ed 9cbd a194 b5bd
00000070: 4385 c0bb 77d4 763e 6f3a 233e 912b 6abd
00000080: eb77 60be a104 1fbe e979 cfbd 1552 533c
00000090: d7d3 5dbe 14c6 a0bd 8d5a d5bc e0a2 85bd
000000a0: 8cf4 1fbe e0b4 463c 87e8 fdbd dff2 7c3d
000000b0: da05 3cbe ff3f 6a3c 9ff2 c0bd 8098 4d3e
000000c0: c691 33be 7a32 7cbb 648d 13be 7815 a13d
000000d0: efc6 623e 02cc ebba a145 3fbe 318c 12be
000000e0: 7636 88be a818 de3d e564 d5bd d9fc 013e
000000f0: 6aca 343e 6d30 d4bd 2f18 24be 0df4 03be
00000100: 93ab 67bc 14c4 51bd ca9e b7bd 9a8e fe3b
00000110: 1560 ddbd 7773 40bd cf97 6abe 4ee0 e1bc
00000120: 3b71 c33c 3b2e 20bd

fc2.weight f4 [74, 74]
-0.622389 -0.06009805 0.15656926 -0.39672548 -0.43511546 -0.080833964 0.108396046 0.16333538
-0.6624243 0.10437674 -0.24187915 -0.22147678 -0.10691859 -0.025496965 -0.1946464 -0.6852402
0.26217988 -0.30998042 0.099486955 -0.6504735 -0.5565889 -0.16672416 -0.29089776 0.5314962
-0.18755974 -0.077713154 0.3081999 -0.35637453 -0.017028872 -0.5006321 -0.9157018 -0.5763056
-0.5064814 -0.49201292 -0.8386741 -0.6710672 -0.028918581 -0.11418449 0.05653199 -1.0885267
-0.034145225 0.090356 -0.28879002 0.02906303 -0.050381217 -0.51198816 -0.956694 -0.116500095
0.06809933 -0.20390534 -0.14268656 0.06719112 -0.20874654 -1.2329811 -0.09416905 -1.2338283
-0.6372352 -0.74068195 -0.69100577 -0.3407575 0.055591572 0.06244835 0.5121961 -0.4815303
-0.06404126 -0.0065624868 -0.55790085 0.41022125 -0.508799 -0.2520742 0.10086444 -1.0558568
-0.0528164 -0.4242967 -0.2408211 0.04385721 0.17395034 -0.16558117 -0.023318268 -0.2097521
-0.37477493 -0.021900617 -0.2768913 0.1107086 0.10855493 -0.181667 0.14142112 0.0022059323
0.07371988 0.032441404 -0.19339547 -0.03178033 -0.060766857 -0.23092446 -0.20824105 -0.199488
-0.04577566 -0.6910025 -0.04686098 -0.0065337624 -0.008956187 -0.16279829 0.052929696 0.07139341
0.18759152 0.098699756 -0.09396582 -0.039100453 -0.03521947 0.07363869 -0.07274937 -0.11074918
-0.017871466 -0.08331343 -0.11594342 0.24006143 0.010682316 -0.18506604 -0.10987249 -0.4951453
-0.15655956 -0.031794608 -0.07872724 -0.20944172 0.08286964 -0.13442683 0.09932919 0.1152138
-0.33028716 -0.09144992 0.005166844 -0.079229206 -0.18156584 -0.22911197 -0.1602329 -0.18657787
-0.25239843 -0.0510548 -0.13087438 -0.23089047 -0.25342563 -0.10731896 -0.044486538 0.0853409
0.026703915 -0.05992508 -0.21667019 -0.0046865186 -0.08476936 -0.21734865 -0.35818782 -0.99282324
0.13529898 -0.32139203 -0.21884125 0.32851556 -0.15579182 0.1375828 -0.1736805 -0.06417019
0.05936105 -0.8013351 -0.25971287 0.10247988 -0.109812096 0.23889332 -0.67759305 -0.04553148
-0.11757787 -0.70333076 0.08086645 -0.079288304 0.06677022 0.030963063 0.026517686 -0.6988351
0.22247736 -0.84067935 -0.23350036 -0.24004753 -0.1613156 0.20886943 -0.25258908 -0.19689529
-0.06921403 -0.698745 -0.65222985 -0.14804018 -0.4980194 -0.8167063 -0.51960963 0.56445724
-0.035759006 -0.41242665 -0.5773303 0.019250197 -0.3357796 -0.79205704 0.4880966 0.10234779
-0.39843655 0.17857464 -0.25618315 -0.54805857 -0.10510673 0.3265837 -0.06938465 -0.74843514
-0.31130025 0.16822556 0.06755564 -0.50586516 0.06119941 -0.33234274 0.05159445 -0.7534348
-0.18221413 -2.001534 0.05273343 0.18998124 0.065632 0.54245377 -0.46551263 0.26173726
-0.4001019 -0.66847146 -0.15486646 -0.78086704 -0.88972634 -1.0718374 0.087981224 -0.001768004
0.080792665 -0.77447265 -0.6199057 -0.09771176 -0.44952583 -0.4625816 -0.2923911 -0.4450004
-0.09344405 -0.00810851 0.3644143 0.3458747 0.21379235 -0.38451484 -0.6909493 -0.53533095
-0.36488673 -0.79930794 -0.29388446 -0.5694226 0.1862333 0.03754878 -0.0020898888 -0.59087497
00000000: e354 1fbf 5f29 76bd b153 203e 9a1f cbbe
00000010: 74c7 debe 478c a5bd bffe dd3d 6441 273e
00000020: a494 29bf 79c3 d53d 2baf 77be cfca 62be
00000030: 22f8 dabd 03df d0bc 6351 47be e76b 2fbf
00000040: 713c 863e c1b5 9ebe d1bf cb3d 6e85 26bf
00000050: 9c7c 0ebf bdb9 2abe 8df0 94be 2310 083f
00000060: a90f 40be 1328 9fbd 61cc 9d3e b976 b6be
00000070: 2280 8bbc 6d29 00bf 6f6b 6abf c488 13bf
00000080: c4a8 01bf 1ee9 fbbe 59b3 56bf 0fcb 2bbf
00000090: a9e6 ecbc 8fd9 e9bd 178e 673d d854 8bbf
000000a0: dddb 0bbd 910c b93d 49dc 93be 9715 ee3c
000000b0: 895c 4ebd a811 03bf e6e9 74bf 9a97 eebd
000000c0: a977 8b3d 90cc 50be 6d1c 12be 7f9b 893d
000000d0: a7c1 55be 53d2 9dbf b4db c0bd 16ee 9dbf
000000e0: d921 23bf 559d 3dbf c1e5 30bf c477 aebe
000000f0: fdb3 633d d7c9 7f3d 491f 033f 248b f6be
00000100: 1028 83bd 210a d7bb 97d2 0ebf 8508 d23e
00000110: a740 02bf df0f 81be 0492 ce3d 5126 87bf
00000120: 0256 58bd 6b3d d9be ce99 76be 9ea3 333d
00000130: 0a20 323e 1c8e 29be f405 bfbc 41c9 56be
00000140: 80e2 bfbe ec68 b3bc b2c4 8dbe 31bb e23d
00000150: 0c52 de3d ea06 3abe b3d0 103e 6791 103b
00000160: 73fa 963d 47e1 043d 7609 46be 172c 02bd
00000170: abe6 78bd 7677 6cbe 243d 55be 9546 4cbe
00000180: 427f 3bbd 8ae5 30bf 4df1 3fbd 2c19 d6bb
00000190: f9bc 12bc 98b4 26be cfcc 583d b536 923d
000001a0: fe17 403e 1923 ca3d 2771 c0bd cc27 20bd
000001b0: 4a42 10bd e2cf 963d 9ffd 94bd 77d0 e2bd
000001c0: 2e67 92bc 3ba0 aabd be73 edbd aad2 753e
000001d0: e104 2f3c f481 3dbe d404 e1bd af83 fdbe
000001e0: 2651 20be 103b 02bd bf3b a1bd e477 56be
000001f0: 8fb7 a93d 30a7 09be 1a6d cb3d 36f5 eb3d
00000200: 661b a9be 184a bbbd a14e a93b ec42 a2bd
00000210: 65ec 39be 549c 6abe 1814 24be 450e 3fbe
00000220: 5e3a 81be d71e 51bd ef03 06be 8d6e 6cbe
00000230: 01c1 81be 0bca dbbd 8437 36bd 36c7 ae3d
00000240: 2bc2 da3c 0074 75bd cade 5dbe 5e91 99bb
00000250: 8f9b adbd a590 5ebe 6564 b7be aa29 7ebf
00000260: d18b 0a3e 7f8d a4be ec17 60be 3133 a83e
00000270: e487 1fbe 81e2 0c3e 4dd9 31be a96b 83bd
00000280: 9324 733d 4c24 4dbf 16f9 84be f9e0 d13d
00000290: 2ae5 e0bd 73a0 743e bd76 2dbf 387f 3abd
000002a0: abcc f0bd 7c0d 34bf 4f9d a53d e861 a2bd
000002b0: d3be 883d 40a6 fd3c 9e3b d93c dbe6 32bf
000002c0: 1bd1 633e c336 57bf b81a 6fbe 05cf 75be
000002d0: eb2f 25be dee1 553e 5b53 81be eb9e 49be
000002e0: 16c0 8dbd f4e0 32bf 89f8 26bf d897 17be
000002f0: 66fc febe aa13 51bf 2305 05bf 4580 103f
00000300: 0978 12bd 9629 d3be ebcb 13bf 97b2 9d3c
00000310: 4eeb abbe 40c4 4abf cce7 f93e b89b d13d
00000320: e0ff cbbe 45dc 363e 702a 83be 914d 0cbf
00000330: 3242 d7bd fb35 a73e 8a19 8ebd 7299 3fbf
00000340: bf62 9fbe 5243 2c3e 9d5a 8a3d 6180 01bf
00000350: 3cac 7a3d d428 aabe b454 533d 1ae1 40bf
00000360: 5796 3abe 2219 00c0 02ff 573d 718a 423e
00000370: 126a 863d 40de 0a3f ac57 eebe 6d02 863e
00000380: 28da ccbe f220 2bbf 5095 1ebe e7e6 47bf
00000390: 1bc5 63bf f831 89bf 802f b43d 5fbc e7ba
000003a0: a076 a53d d743 46bf 24b2 1ebf 1a1d c8bd
000003b0: 4028 e6be 7fd7 ecbe 49b4 95be 18d7 e3be
000003c0: 985f bfbd 8ed9 04bc 8394 ba3e 7d16 b13e
000003d0: 62ec 5a3e 21df c4be 0ee2 30bf 730b 09bf
000003e0: 6fd2 babe 729f 4cbf 0678 96be aec5 11bf
000003f0: f1b3 3e3e c0cc 193d 84f6 08bb 9543 17bf

fc2.bias f4 [74]
-0.12751068 0.585992 -0.13342679 -0.2748275 0.99645716 0.39222702 -0.13592575 0.00700329
-0.14518246 -0.32015243 -0.2030034 -0.3025643 0.16776705 0.79012764 -0.10643703 -0.12492981
-0.116877355 -0.12926765 -0.102807984 -0.23057018 0.7157536 -0.13055333 0.9052609 -0.26344082
-0.07067688 -0.039326414 0.12536256 0.18499798 0.1737108 0.073694475 0.4565835 -0.29471684
0.6825079 0.7786316 0.62174755 -0.13617688 -0.20129226 0.035992358 0.2483851 -0.21423654
0.59978503 -0.17193998 0.06882803 -0.01720937 0.20390233 -0.20875116 0.0821896 -0.3534464
0.23600368 0.58674324 -0.26083207 0.9118894 0.49523208 -0.43464968 0.42594397 -0.18162014
-0.44310305 0.0129471235 0.041430157 0.085467346 0.1348245 -0.18656218 -0.42175984 -0.07307389
-0.0111032175 -0.23245904 0.00012357465 0.9431723 0.16079925 -0.31004503 -0.2053858 0.6901
0.09188175 -0.01609732
00000000: 2992 02be 9203 163f 08a1 08be 31b6 8cbe
00000010: d117 7f3f fbd1 c83e 1f30 0bbe db7b e53b
00000020: b6aa 14be 05eb a3be 20e0 4fbe b5e9 9abe
00000030: 20cb 2b3e ce45 4a3f a8fb d9bd 33db ffbd
00000040: 655d efbd bd5e 04be fe8c d2bd 971a 6cbe
00000050: a13b 373f c6af 05be 2ebf 673f b7e1 86be
00000060: 0abf 90bd bc14 21bd 0b5f 003e 1c70 3d3e
00000070: 3ee1 313e 21ed 963d 50c5 e93e 20e5 96be
00000080: d6b8 2e3f 6754 473f d92a 1f3f f471 0bbe
00000090: 8f1f 4ebe b96c 133d aa58 7e3e d360 5bbe
000000a0: 838b 193f 0911 30be b6f5 8c3d aafa 8cbc
000000b0: c6cb 503e ddc2 55be 0553 a83d edf6 b4be
000000c0: f3aa 713e ce34 163f c88b 85be 9571 693f
000000d0: 0f8f fd3e 678a debe 5415 da3e a1fa 39be
000000e0: 67de e2be 2c20 543c abb2 293d 8109 af3d
000000f0: 6f0f 0a3e 280a 3fbe e8f0 d7be c3a7 95bd
00000100: 45ea 35bc be09 6ebe d193 0139 bd73 713f
00000110: 8fa8 243e 39be 9ebe a850 52be 65aa 303f
00000120: 802c bc3d 87de 83bc

fc3.weight f4 [4, 74]
0.34903514 0.13050093 -0.22015281 -0.5563873 0.31027773 0.08287338 0.2700799 0.17501427
0.22311114 -0.21688373 0.3493654 -0.18718907 -0.02168277 0.3376237 0.37707353 0.50454706
-0.15228112 -0.6276629 0.087196395 0.0949832 0.16057757 -0.40244097 0.310192 0.45995948
0.040042337 0.034065302 0.106932595 0.14169878 0.31338042 0.19621977 0.04779607 -0.64394695
0.24296817 0.21989606 0.22400317 -0.50872725 0.37157002 -0.026114509 -0.10466357 0.6786525
0.27970538 0.09191092 0.3700939 -0.073088564 -0.73838186 0.023915512 0.09416395 -0.086937346
-0.17605226 0.3499122 -0.24690305 0.28624588 0.23577157 -0.24913493 0.1950708 0.37899494
-0.24435383 -0.17656325 0.2447741 -0.24484535 0.386324 0.13178942 -0.37626266 0.21524121
-0.03487958 0.26149943 -0.057479825 0.2710383 0.104635164 -0.1674409 -0.15235443 0.25561938
0.25994113 -0.13549088 0.1434942 0.22732817 -0.19343838 -0.30038556 0.26651108 0.13896087
0.55025876 0.21109554 0.37280133 -0.20733656 0.14557008 -0.20196743 0.046623062 0.32481596
0.47594094 0.73698413 -0.12121523 -0.019036373 -0.2103075 0.18910591 0.18095973 0.00084751647
0.23229942 0.5432753 0.22587758 0.22718221 0.057255365 0.17756957 0.26990888 0.28659695
0.0694642 0.2681391 0.24073221 0.24817087 0.16905148 -0.16069762 0.2484152 0.09011064
0.018015163 0.6691788 0.27752703 0.269763 0.18400171 0.03101596 0.007828788 -0.14663064
0.018968841 -0.24390312 0.10964049 0.3208788 -0.23872645 0.28998008 0.28823426 -0.18742101
0.18128 0.4482809 -0.24563816 -0.07524505 0.1747046 0.0049241367 0.40104678 0.19450131
-0.33161622 -0.17021751 0.102495834 0.16387486 0.09974793 0.39897966 0.103999496 -0.27725273
-0.11055242 0.19735333 0.28819183 0.19179325 -0.32205778 0.23576277 -0.10275832 -0.18886927
0.3167491 0.26421106 0.17148869 0.06275988 0.30717552 -0.04196098 0.48161942 -0.006455834
0.12701592 0.27541056 0.3455419 0.52744055 0.22445676 -0.19450179 0.7013129 0.61773866
0.22686242 -0.36363387 0.32397482 0.0015062283 -0.30319473 0.30280644 0.14762206 0.16173314
0.015667023 0.23100737 0.23507959 -0.56779474 0.100451745 0.2118875 0.29199845 0.3787824
0.21588643 0.18503024 -0.06521469 0.467435 0.2374089 -0.18477646 0.21491887 0.39765698
-0.1677703 0.18751384 0.02047454 -0.7143164 0.22218321 0.2880225 -0.30798173 0.2639296
0.23031987 -0.2655712 0.11172728 0.07003201 -0.09420442 -0.78350586 0.025338246 0.18893978
0.30893043 0.48461127 -0.27229035 -0.22610676 0.3216406 -0.05643727 0.087966286 0.33591738
0.19212417 -0.5534752 0.026901301 0.23989756 0.15399128 0.16068959 -0.014225048 0.23292266
-0.4841995 -0.2955595 0.34114596 -0.11584882 0.5960198 0.122035116 0.4555863 -0.31969187
0.14265004 -0.12389247 0.14495213 0.33992654 0.11148442 -0.48081124 0.14705871 0.38108057
-0.2918225 -0.15424906 0.345956 0.3968841 0.25288752 0.5716473 0.18263154 0.16678485
0.116662554 0.18925922 0.050180767 0.20686835 0.2389532 -0.5833353 0.23675032 0.27505603
00000000: bcb4 b23e 09a2 053e bd6f 61be 666f 0ebf
00000010: b9dc 9e3e 85b9 a93d ea47 8a3e f136 333e
00000020: 3f77 643e c516 5ebe 06e0 b23e 7eae 3fbe
00000030: 11a0 b1bc 03dd ac3e c80f c13e ff29 013f
00000040: 95ef 1bbe 84ae 20bf 0694 b23d 8d86 c23d
00000050: 726e 243e be0c cebe 7cd1 9e3e cf7f eb3e
00000060: 6f03 243d 0f88 0b3d 7aff da3d 7c19 113e
00000070: 6673 a03e d6ed 483e d0c5 433d b5d9 24bf
00000080: a6cc 783e 6f2c 613e 1661 653e f33b 02bf
00000090: 6d3e be3e 18ee d5bc db59 d6bd 2cbc 2d3f
000000a0: 8b35 8f3e cb3b bc3d f37c bd3e 75af 95bd
000000b0: 9806 3dbf 77ea c33c 07d9 c03d 350c b2bd
000000c0: 0b47 34be b127 b33e 27d4 7cbe d28e 923e
000000d0: 1a6e 713e 3a1d 7fbe a4c0 473e a00b c23e
000000e0: e437 7abe ffcc 34be 10a6 7a3e bdb8 7abe
000000f0: 42cc c53e cef3 063e 80a5 c0be 3168 5c3e
00000100: e4dd 0ebd 41e3 853e f76f 6bbd 88c5 8a3e
00000110: f64a d63d a175 2bbe cd02 1cbe 8be0 823e
00000120: 0117 853e 1fbe 0abe 25f0 123e b7c8 683e
00000130: b614 46be 23cc 99be 2474 883e c24b 0e3e
00000140: c2dd 0c3f 6e29 583e d1df be3e 0950 54be
00000150: 5310 153e 8dd0 4ebe d3f7 3e3d 474e a63e
00000160: 88ae f33e feaa 3c3f b13f f8bd 2bf2 9bbc
00000170: d95a 57be fba4 413e 824d 393e de2b 5e3a
00000180: e6df 6d3e 1714 0b3f 744c 673e 74a2 683e
00000190: 9a84 6a3d ccd4 353e 7f31 8a3e d6bc 923e
000001a0: 3f43 8e3d 8749 893e 8182 763e 8120 7e3e
000001b0: d51b 2d3e eb8d 24be 8e60 7e3e ed8b b83d
000001c0: 8994 933c 4d4f 2b3f 0618 8e3e 601e 8a3e
000001d0: f26a 3c3e 2f15 fe3c 5144 003c 5826 16be
000001e0: 8b64 9b3c bdc1 79be 318b e03d 3a4a a43e
000001f0: b574 74be 4578 943e 7193 933e 4beb 3fbe
00000200: 77a1 393e 1385 e53e 9288 7bbe 141a 9abd
00000210: c3e5 323e a75a a13b 0156 cd3e 5a2b 473e
00000220: 9ac9 a9be 804d 2ebe 56e9 d13d d0ce 273e
00000230: a548 cc3d 1047 cc3e b0fd d43d 12f4 8dbe
00000240: 4f69 e2bd fe16 4a3e e18d 933e 7365 443e
00000250: c2e4 a4be cc6b 713e f472 d2bd f266 41be
00000260: f02c a23e ac46 873e bb9a 2f3e 4188 803d
00000270: 1c46 9d3e 47df 2bbd d296 f63e 768b d3bb
00000280: 7610 023e 9d02 8d3e deea b03e 5806 073f
00000290: fed7 653e 7a2b 47be 3e89 333f 1f24 1e3f
000002a0: 9f4e 683e 382e babe 07e0 a53e a36c c53a
000002b0: 573c 9bbe 7209 9b3e 3d2a 173e 5f9d 253e
000002c0: 2158 803c 328d 6c3e b4b8 703e ff5a 11bf
000002d0: a5b9 cd3d 09f9 583e d280 953e c4ef c13e
000002e0: 5511 5d3e 9178 3d3e 488f 85bd a453 ef3e
000002f0: 521b 733e 0a36 3dbe b113 5c3e b299 cb3e
00000300: facb 2bbe a103 403e 39ba a73c 71dd 36bf
00000310: ff83 633e af77 933e c8af 9dbe c821 873e
00000320: f9d8 6b3e f3f8 87be 46d1 e43d f16c 8f3d
00000330: 3fee c0bd d793 48bf 2792 cf3c 6e79 413e
00000340: 212c 9e3e f81e f83e a469 8bbe 8888 67be
00000350: 14ae a43e c42a 67bd ab27 b43d 5dfd ab3e
00000360: 33bc 443e 8db0 0dbf 1e60 dc3c b5a7 753e
00000370: e4af 1d3e d08b 243e 2d10 69bc 4783 6e3e
00000380: ffe8 f7be 9353 97be afaa ae3e 2542 edbd
00000390: c194 183f 8ced f93d 9c42 e93e a7ae a3be
000003a0: da12 123e 56bb fdbd 556e 143e da0a ae3e
000003b0: f251 e43d e42c f6be 8f96 163e fe1c c33e
000003c0: c269 95be 77f3 1dbe 2521 b13e 6534 cb3e
000003d0: 797a 813e 7a57 123f c303 3b3e a6c9 2a3e
000003e0: c7ec ee3d 2bcd 413e 598a 4d3d 4cd5 533e
000003f0: 26b0 743e 7655 15bf ad6e 723e 25d4 8c3e

fc3.bias f4 [4]
0.83908945 0.60437286 0.6048536 0.6023904
00000000: 91ce 563f 2eb8 1a3f afd7 1a3f 4236 1a3f
